…
| loaded 1368 examples from: /dccstor/jzhou1/work/EXP/data/o3_act-states/processed/valid.en-actions.actions_nopos
| loaded 1368 examples from: /dccstor/jzhou1/work/EXP/data/o3_act-states/processed/valid.en-actions.actions_pos
| loaded 1368 examples from: /dccstor/jzhou1/work/EXP/data/o3_act-states/processed/valid.en-actions.actions.vocab_masks
| loaded 1368 examples from: /dccstor/jzhou1/work/EXP/data/o3_act-states/processed/valid.en-actions.actions.actnode_masks
| loaded 1368 examples from: /dccstor/jzhou1/work/EXP/data/o3_act-states/processed/valid.en-actions.actions.src_cursors
TransformerTgtPointerModel(
  (encoder): TransformerEncoder(
    (subspace): Linear(in_features=1024, out_features=256, bias=False)
    (embed_tokens): Embedding(33256, 256, padding_idx=1)
    (embed_positions): SinusoidalPositionalEmbedding()
    (layers): ModuleList(
      (0): TransformerEncoderLayer(
        (self_attn): MultiheadAttention(
          (out_proj): Linear(in_features=256, out_features=256, bias=True)
        )
        (self_attn_layer_norm): FusedLayerNorm(torch.Size([256]), eps=1e-05, elementwise_affine=True)
        (fc1): Linear(in_features=256, out_features=512, bias=True)
        (fc2): Linear(in_features=512, out_features=256, bias=True)
        (final_layer_norm): FusedLayerNorm(torch.Size([256]), eps=1e-05, elementwise_affine=True)
      )
      (1): TransformerEncoderLayer(
        (self_attn): MultiheadAttention(
          (out_proj): Linear(in_features=256, out_features=256, bias=True)
        )
        (self_attn_layer_norm): FusedLayerNorm(torch.Size([256]), eps=1e-05, elementwise_affine=True)
        (fc1): Linear(in_features=256, out_features=512, bias=True)
        (fc2): Linear(in_features=512, out_features=256, bias=True)
        (final_layer_norm): FusedLayerNorm(torch.Size([256]), eps=1e-05, elementwise_affine=True)
      )
      (2): TransformerEncoderLayer(
        (self_attn): MultiheadAttention(
          (out_proj): Linear(in_features=256, out_features=256, bias=True)
        )
        (self_attn_layer_norm): FusedLayerNorm(torch.Size([256]), eps=1e-05, elementwise_affine=True)
        (fc1): Linear(in_features=256, out_features=512, bias=True)
        (fc2): Linear(in_features=512, out_features=256, bias=True)
        (final_layer_norm): FusedLayerNorm(torch.Size([256]), eps=1e-05, elementwise_affine=True)
      )
      (3): TransformerEncoderLayer(
        (self_attn): MultiheadAttention(
          (out_proj): Linear(in_features=256, out_features=256, bias=True)
        )
        (self_attn_layer_norm): FusedLayerNorm(torch.Size([256]), eps=1e-05, elementwise_affine=True)
        (fc1): Linear(in_features=256, out_features=512, bias=True)
        (fc2): Linear(in_features=512, out_features=256, bias=True)
        (final_layer_norm): FusedLayerNorm(torch.Size([256]), eps=1e-05, elementwise_affine=True)
      )
      (4): TransformerEncoderLayer(
        (self_attn): MultiheadAttention(
          (out_proj): Linear(in_features=256, out_features=256, bias=True)
        )
        (self_attn_layer_norm): FusedLayerNorm(torch.Size([256]), eps=1e-05, elementwise_affine=True)
        (fc1): Linear(in_features=256, out_features=512, bias=True)
        (fc2): Linear(in_features=512, out_features=256, bias=True)
        (final_layer_norm): FusedLayerNorm(torch.Size([256]), eps=1e-05, elementwise_affine=True)
      )
      (5): TransformerEncoderLayer(
        (self_attn): MultiheadAttention(
          (out_proj): Linear(in_features=256, out_features=256, bias=True)
        )
        (self_attn_layer_norm): FusedLayerNorm(torch.Size([256]), eps=1e-05, elementwise_affine=True)
        (fc1): Linear(in_features=256, out_features=512, bias=True)
        (fc2): Linear(in_features=512, out_features=256, bias=True)
        (final_layer_norm): FusedLayerNorm(torch.Size([256]), eps=1e-05, elementwise_affine=True)
      )
    )
  )
  (decoder): TransformerDecoder(
    (embed_tokens): Embedding(8936, 256, padding_idx=1)
    (embed_positions): SinusoidalPositionalEmbedding()
    (layers): ModuleList(
      (0): TransformerDecoderLayer(
        (self_attn): MultiheadAttention(
          (out_proj): Linear(in_features=256, out_features=256, bias=True)
        )
        (self_attn_layer_norm): FusedLayerNorm(torch.Size([256]), eps=1e-05, elementwise_affine=True)
        (encoder_attn): MultiheadAttention(
          (out_proj): Linear(in_features=256, out_features=256, bias=True)
        )
        (encoder_attn_layer_norm): FusedLayerNorm(torch.Size([256]), eps=1e-05, elementwise_affine=True)
        (fc1): Linear(in_features=256, out_features=512, bias=True)
        (fc2): Linear(in_features=512, out_features=256, bias=True)
        (final_layer_norm): FusedLayerNorm(torch.Size([256]), eps=1e-05, elementwise_affine=True)
      )
      (1): TransformerDecoderLayer(
        (self_attn): MultiheadAttention(
          (out_proj): Linear(in_features=256, out_features=256, bias=True)
        )
        (self_attn_layer_norm): FusedLayerNorm(torch.Size([256]), eps=1e-05, elementwise_affine=True)
        (encoder_attn): MultiheadAttention(
          (out_proj): Linear(in_features=256, out_features=256, bias=True)
        )
        (encoder_attn_layer_norm): FusedLayerNorm(torch.Size([256]), eps=1e-05, elementwise_affine=True)
        (fc1): Linear(in_features=256, out_features=512, bias=True)
        (fc2): Linear(in_features=512, out_features=256, bias=True)
        (final_layer_norm): FusedLayerNorm(torch.Size([256]), eps=1e-05, elementwise_affine=True)
      )
      (2): TransformerDecoderLayer(
        (self_attn): MultiheadAttention(
          (out_proj): Linear(in_features=256, out_features=256, bias=True)
        )
        (self_attn_layer_norm): FusedLayerNorm(torch.Size([256]), eps=1e-05, elementwise_affine=True)
        (encoder_attn): MultiheadAttention(
          (out_proj): Linear(in_features=256, out_features=256, bias=True)
        )
        (encoder_attn_layer_norm): FusedLayerNorm(torch.Size([256]), eps=1e-05, elementwise_affine=True)
        (fc1): Linear(in_features=256, out_features=512, bias=True)
        (fc2): Linear(in_features=512, out_features=256, bias=True)
        (final_layer_norm): FusedLayerNorm(torch.Size([256]), eps=1e-05, elementwise_affine=True)
      )
      (3): TransformerDecoderLayer(
        (self_attn): MultiheadAttention(
          (out_proj): Linear(in_features=256, out_features=256, bias=True)
        )
        (self_attn_layer_norm): FusedLayerNorm(torch.Size([256]), eps=1e-05, elementwise_affine=True)
        (encoder_attn): MultiheadAttention(
          (out_proj): Linear(in_features=256, out_features=256, bias=True)
        )
        (encoder_attn_layer_norm): FusedLayerNorm(torch.Size([256]), eps=1e-05, elementwise_affine=True)
        (fc1): Linear(in_features=256, out_features=512, bias=True)
        (fc2): Linear(in_features=512, out_features=256, bias=True)
        (final_layer_norm): FusedLayerNorm(torch.Size([256]), eps=1e-05, elementwise_affine=True)
      )
      (4): TransformerDecoderLayer(
        (self_attn): MultiheadAttention(
          (out_proj): Linear(in_features=256, out_features=256, bias=True)
        )
        (self_attn_layer_norm): FusedLayerNorm(torch.Size([256]), eps=1e-05, elementwise_affine=True)
        (encoder_attn): MultiheadAttention(
          (out_proj): Linear(in_features=256, out_features=256, bias=True)
        )
        (encoder_attn_layer_norm): FusedLayerNorm(torch.Size([256]), eps=1e-05, elementwise_affine=True)
        (fc1): Linear(in_features=256, out_features=512, bias=True)
        (fc2): Linear(in_features=512, out_features=256, bias=True)
        (final_layer_norm): FusedLayerNorm(torch.Size([256]), eps=1e-05, elementwise_affine=True)
      )
      (5): TransformerDecoderLayer(
        (self_attn): MultiheadAttention(
          (out_proj): Linear(in_features=256, out_features=256, bias=True)
        )
        (self_attn_layer_norm): FusedLayerNorm(torch.Size([256]), eps=1e-05, elementwise_affine=True)
        (encoder_attn): MultiheadAttention(
          (out_proj): Linear(in_features=256, out_features=256, bias=True)
        )
        (encoder_attn_layer_norm): FusedLayerNorm(torch.Size([256]), eps=1e-05, elementwise_affine=True)
        (fc1): Linear(in_features=256, out_features=512, bias=True)
        (fc2): Linear(in_features=512, out_features=256, bias=True)
        (final_layer_norm): FusedLayerNorm(torch.Size([256]), eps=1e-05, elementwise_affine=True)
      )
    )
  )
)
| model transformer_tgt_pointer, criterion LabelSmoothedCrossEntropyPointerCriterion
| num. model params: 21258240 (num. trained: 21258240)
| training on 1 GPUs
| max tokens per GPU = 3584 and max sentences per GPU = None
| no existing checkpoint found /dccstor/jzhou1/work/EXP/exp_o3_roberta-large-top24_act-pos_vmask0_shiftpos0_cattnmask-layerall-head1-focusp0n0_ptr-layer56-head1/models_ep120_seed42/checkpoint_last.pt
…
